dqn_model.pth (torch, 114733 bytes, 6 tensors)

net.0.weight f4 [128, 80]
0	0x3d0b9aab	0.03408305
1	0xbd078583	-0.03308631
2	0x3d853c67	0.065056615
3	0xbc80cb90	-0.015722066
4	0x3d91975c	0.07108948
5	0x3d720147	0.05908325
6	0xbd9d2d95	-0.0767471
7	0xbca54e00	-0.020178795
8	0x3c692d3b	0.014231975
9	0x3dd56c98	0.10421103
10	0x3d763816	0.06011208
11	0xbd005436	-0.03133031
12	0xbdbb0dc4	-0.09133485
13	0xbd57ca5b	-0.052683216
14	0xbd580953	-0.052743267
15	0x3ccda0b0	0.025101036
16	0xbcfb9459	-0.030710386
17	0x3e03701d	0.12835737
18	0xbdb587fe	-0.08863829
19	0x3e10e7e7	0.14150964
20	0x3d6fc6ee	0.058539324
21	0xbda1676d	-0.07881055
22	0xbd1a3f6c	-0.03765814
23	0x3d57551a	0.052571394
24	0xbd86b743	-0.06577923
25	0x3d296b45	0.041362066
26	0xbd5215ab	-0.051290195
27	0x3e187295	0.1488746
28	0xbdd8299f	-0.105548136
29	0x3d4d530e	0.050128035
30	0xbda5a9a3	-0.08088996
31	0x3d824ec9	0.06362683
32	0xbcf4b839	-0.029873
33	0xbda61541	-0.081095226
34	0xbda45c00	-0.0802536
35	0x3d866719	0.06562633
36	0x3cde5e8b	0.027144691
37	0xbd3cc5fd	-0.046087254
38	0x3e0f2abd	0.13981147
39	0x3d5907c4	0.05298592
40	0x3d49e973	0.0492949
41	0x3d1cd441	0.03828836
42	0x3d8163e4	0.06317881
43	0x3dce47fb	0.10072323
44	0x3dca023a	0.09863706
45	0xbd0e4f89	-0.03474382
46	0x3bc181d2	0.0059053684
47	0x3d854f25	0.06509236
48	0x3d2c5bb0	0.042079628
49	0x3da05c5d	0.07830117
50	0x3df3adec	0.11898407
51	0x3dcafba1	0.09911276
52	0x3dca91ca	0.09891088
53	0x3cc7e94e	0.02440324
54	0x3db2011e	0.08691619
55	0x3dbe8a5b	0.09303733
56	0xbdb90921	-0.09034944
57	0x3d913779	0.07090659
58	0xbd421476	-0.047382794
59	0xbceee96a	-0.029164035
60	0xbd1f0ff2	-0.038833566
61	0xbd036a2e	-0.032083683
62	0xbd54fd44	-0.051999345
63	0x3de8ef45	0.11373762
64	0xbd9ba47d	-0.07599733
65	0x3d23f643	0.040029775
66	0xbcd95175	-0.0265281
67	0x3dcbe453	0.09955659
68	0x3d26ddc6	0.040738843
69	0xbd7597d4	-0.059959248
70	0x3cefe0ff	0.029282091
71	0x3e0c0573	0.13673954
72	0x3de2b8fe	0.11070441
73	0xbd17b887	-0.037041213
74	0x3da48597	0.08033293
75	0xbd644a40	-0.055734873
76	0x3d4bb073	0.049728822
77	0x3c3794d6	0.011204919
78	0x3c759941	0.014990152
79	0x3c00a956	0.007852873
80	0x3dc9d042	0.09854175
81	0x3ccd963f	0.025096057
82	0xbd9fca08	-0.07802206
83	0xbdbe67b0	-0.092971206
84	0xbd9d3bb2	-0.076774016
85	0xbd84e324	-0.06488636
86	0xbd12f1f9	-0.035875294
87	0x3db2cc1a	0.087303355
88	0xbd9cc337	-0.07654422
89	0x3d28c4f1	0.041203443
90	0x3ddfb01f	0.10922264
91	0xbdcbc496	-0.09949605
92	0x3d79745b	0.06090198
93	0xbd1e1faa	-0.038604416
94	0x3dc8f68f	0.09812652
95	0xbd1cf9f5	-0.038324315
96	0xbc16a1b8	-0.00919383
97	0xbd07afd2	-0.03312666
98	0x3d1c7400	0.038196564
99	0xbd528e8e	-0.051405482
100	0xbcac0425	-0.02099807
101	0xbc52a06e	-0.012855632
102	0x3d6ced06	0.05784323
103	0x3ce428f9	0.027851569
104	0x3d786338	0.060641497
105	0xbc70faa8	-0.014708199
106	0xbdd06ef8	-0.101774156
107	0x3dc89f95	0.09796063
108	0x3d466d10	0.048443854
109	0xbcc7c7d2	-0.024387274
110	0xbb63ffa2	-0.003478982
111	0xbdcaeb80	-0.09908199
112	0xbd86243b	-0.06549879
113	0xbd17b713	-0.037039828
114	0x3bc3ca3f	0.0059750373
115	0xbdb904d1	-0.09034122
116	0xbd912366	-0.0708683
117	0x3d3c9177	0.046037164
118	0xbdb6fd9c	-0.08935091
119	0x3d056c7c	0.032574162
120	0xbdd1800e	-0.102295026
121	0xbd32707a	-0.043564297
122	0xbcfd87cd	-0.030948544
123	0x3b42376b	0.0029635082
124	0x3dd73a66	0.105091855
125	0xbbc13bc0	-0.0058970153
126	0xbd4afb54	-0.04955609
127	0xbdd8bdfb	-0.10583111
128	0xbdb4bf4e	-0.08825551
129	0xbc8cfdb7	-0.017210824
130	0xbcdab58c	-0.026697896
131	0x3c4526f6	0.012033215
132	0x3d94db52	0.072683945
133	0xbd75737b	-0.059924584
134	0xbd8aa357	-0.06769436
135	0x3dc7c7c0	0.09754896
136	0x3d2f8e57	0.042860355
137	0x3dd86ed1	0.105680116
138	0x3dbdeb34	0.09273377
139	0xbbc41a13	-0.0059845536
140	0x3d9f9eef	0.07793986
141	0x3ddf5f78	0.10906881
142	0xbd8c4070	-0.06848228
143	0x3d295b3f	0.041346785
144	0xbdb376f9	-0.087629266
145	0xb9f5d5af	-0.00046889248
146	0x3cd56cd7	0.026052875
147	0xbda993a2	-0.08280112
148	0xbb8864fc	-0.004162429
149	0x3da93541	0.082621105
150	0xbd61e5b5	-0.055150706
151	0xbca7044d	-0.020387793
152	0xbdbf682c	-0.09346041
153	0xbd39bf98	-0.045348734
154	0x3dabc68a	0.08387478
155	0xbd39c61e	-0.045354955
156	0xbdc40f97	-0.09573286
157	0xbd7a35b8	-0.061086386
158	0xbd5df052	-0.054184265
159	0x3d98809f	0.074464075
160	0xbd8498ee	-0.064744815
161	0xbd42afa6	-0.047530793
162	0x3dc8d108	0.098054945
163	0x3c6e3b3e	0.014540492
164	0xbd3a82f1	-0.04553503
165	0x3a25dfd3	0.0006327603
166	0xbc3d586b	-0.011556725
167	0xbd9a133d	-0.07523201
168	0xbd87803c	-0.06616256
169	0x3d7f3410	0.06230551
170	0x3d1c18e9	0.038109694
171	0xbd4a5667	-0.049398806
172	0x3dcabfdb	0.09899875
173	0xbaab100d	-0.0013051048
174	0x3c17aab1	0.009257005
175	0x3da50188	0.08056933
176	0x3d447a39	0.047968123
177	0xbca7f65b	-0.020503214
178	0xbc44eb7b	-0.012019034
179	0xbdc33578	-0.09531683
180	0xbcb35bd0	-0.021894366
181	0xbdaad249	-0.0834089
182	0xbd21a847	-0.039467122
183	0xbd175470	-0.03694576
184	0xbd983326	-0.07431631
185	0x3c0a5f1e	0.008445529
186	0x3d99ef0d	0.075162984
187	0xbd319e5c	-0.043363914
188	0xbdb200fc	-0.08691594
189	0x3ddc24ab	0.10749181
190	0x3d9e0d4f	0.07717382
191	0xbd806205	-0.06268696
192	0xbdaf0876	-0.08546536
193	0x3d86644f	0.06562101
194	0xb9ad6a00	-0.00033076108
195	0x3b91765c	0.0044391584
196	0xbdd508ba	-0.10402055
197	0xbd8bc2e7	-0.06824284
198	0xbddd6daa	-0.108119324
199	0x3dd42d97	0.10360258
200	0xbd87d88f	-0.06633102
201	0xbcf9d029	-0.030494766
202	0x3cf7b779	0.030238854
203	0xbc6c1b60	-0.014410824
204	0x3d1b934e	0.037982278
205	0xbd57e4a7	-0.052708294
206	0xbdd81c53	-0.105522774
207	0x3b6d6735	0.0036224846
208	0xbd9a6a56	-0.07539813
209	0x3db56cb2	0.088586226
210	0xbd814cfb	-0.06313511
211	0xbdb81f57	-0.089903526
212	0xbddd6acd	-0.10811386
213	0xbd8326dc	-0.06403896
214	0x3da760d0	0.081727624
215	0xbb5dbd45	-0.0033834737
216	0xbcb6cd45	-0.022314677
217	0x3da17733	0.078840636
218	0x3d982212	0.074283734
219	0x3dcaf78a	0.099104956
220	0xbdb3462d	-0.08753619
221	0x3d4e5f37	0.050383773
222	0xbdbf75be	-0.093486294
223	0xbd70174a	-0.05861596
224	0xbd9fd682	-0.07804586
225	0xbdddeb1d	-0.1083586
226	0xbd4e6a6c	-0.05039446
227	0xbd5f8ac0	-0.05457568
228	0xbcc35545	-0.02384437
229	0xbc8d35c2	-0.017237548
230	0x3da50c6f	0.08059012
231	0xbd4c70d5	-0.049912293
232	0xbdb1d3b4	-0.08682957
233	0x3db1100c	0.08645639
234	0x3d8db516	0.06919305
235	0x3d9c3c89	0.07628734
236	0x3d0b35fd	0.033987034
237	0xbdbc15b8	-0.0918383
238	0x3d643b73	0.055720758
239	0x3d6ac2e5	0.057314772
240	0xbdc7a5e5	-0.09748439
241	0x3d7aa692	0.06119401
242	0x3d05755f	0.032582637
243	0xbdc46ad3	-0.095906876
244	0x3d337945	0.043816824
245	0x3d85c7b2	0.065322295
246	0x3c31d6ca	0.010854432
247	0xbd91a918	-0.0711233
248	0xbae86309	-0.001772971
249	0x3dd35e62	0.103207365
250	0x3a1bd0c5	0.000594389
251	0x3d78af4d	0.060714055
252	0xbd26d971	-0.040734712
253	0x3d9f6240	0.077824116
254	0xbd18c731	-0.03729934
255	0xbdb1d8de	-0.08683942

net.0.bias f4 [128]
0	0xbca29b8b	-0.01984956
1	0xbd89f6ae	-0.067365035
2	0x3da0d84e	0.07853757
3	0xbd6b16a7	-0.05739465
4	0xbdddb966	-0.108263776
5	0xbdf2dbd2	-0.11858334
6	0x3d860cd8	0.065454185
7	0x3d62e636	0.055395328
8	0xbd79018f	-0.060792502
9	0x3cab080e	0.020877864
10	0xbd767346	-0.060168527
11	0x3cb571c8	0.022148982
12	0xbd52acbc	-0.051434264
13	0x3c5b3b20	0.013380796
14	0x3d74bc1d	0.05974971
15	0x3d252d7c	0.04032658
16	0x3e1e946c	0.15486306
17	0x3d579269	0.052629862
18	0xbd2b27e4	-0.04178609
19	0x3d436255	0.0477012
20	0xbca2556f	-0.019816129
21	0xbd176a2b	-0.036966484
22	0x3d303278	0.04301688
23	0x3d1047ee	0.035224847
24	0x3bc40869	0.005982448
25	0xbd8f1108	-0.0698567
26	0xbdc1f7bd	-0.094710805
27	0xbd974b55	-0.07387415
28	0x3d431707	0.047629382
29	0x3d4f0cc3	0.05054928
30	0x3d0da1f8	0.034578294
31	0x3df16171	0.117861636
32	0xbd783886	-0.06060078
33	0x3d210bcf	0.039317902
34	0xbc81072b	-0.015750488
35	0x3d9f5d01	0.07781411
36	0x3daf8d88	0.08571917
37	0xbd479d20	-0.04873383
38	0xbd3375fd	-0.043813694
39	0x3d6dbd7a	0.058042027
40	0x3d4e9110	0.05043131
41	0xbd189fc9	-0.037261758
42	0x3cbd85cc	0.023135088
43	0xbdb17e76	-0.08666699
44	0x3c0fbc03	0.008772853
45	0xbd4b9f86	-0.04971268
46	0x3e11e450	0.1424725
47	0xbd132a86	-0.035929225
48	0xbdc245a5	-0.0948594
49	0xbd8f0acd	-0.06984482
50	0x3d3e2817	0.04642495
51	0x3d90d42e	0.0707172
52	0xbd49ebe9	-0.049297247
53	0x3e0bd786	0.13656434
54	0x3e1c0c0c	0.1523897
55	0x3c6f06bb	0.014589007
56	0x3e16d165	0.14728315
57	0xbc2d813e	-0.010589896
58	0x3cbe4736	0.023227315
59	0x3d8a0bf0	0.06740558
60	0xbd95d6a8	-0.07316333
61	0x3d8d5718	0.069013774
62	0x3d340113	0.043946337
63	0xbcb8f5c3	-0.022578126
64	0xbd7d5304	-0.061846748
65	0xbdb8ae6c	-0.09017643
66	0x3cc3927c	0.02387356
67	0xbc2b4756	-0.0104540195
68	0x3c63cf2b	0.013904373
69	0x3e0788d9	0.13235797
70	0xbc9fab19	-0.019490765
71	0x3d12dedd	0.03585707
72	0x3c4a6fcc	0.012355756
73	0x3cc8fb6c	0.02453395
74	0x3ccf087f	0.025272606
75	0xbdca436c	-0.09876141
76	0x3b20d29e	0.00245396
77	0x3de6ae2a	0.11263688
78	0x3ca3142e	0.019907083
79	0x3e0242bb	0.12720768
80	0xbd6b1bb9	-0.057399485
81	0xbc7d5b18	-0.015463613
82	0xbce3845f	-0.02777308
83	0x3d926165	0.07147483
84	0x3bb5e85a	0.00555138
85	0xbb9c0fd9	-0.0047626314
86	0xbd72ada7	-0.05924764
87	0x3dca5048	0.09878594
88	0xbd1c726d	-0.038195062
89	0x3cad8ae8	0.0211844
90	0x3e1d004f	0.15332149
91	0x3e1b7cd1	0.15184332
92	0x3cd56a1a	0.02605157
93	0x3dcfa928	0.10139686
94	0x3db506d2	0.088391915
95	0x3d404943	0.046944868
96	0x3daa610f	0.08319294
97	0x3dca4231	0.09875906
98	0xbd19777f	-0.037467476
99	0x3e236075	0.15954764
100	0x3e1694ba	0.14705172
101	0x3c0933ae	0.008374138
102	0x3da86c01	0.08223725
103	0x3d9b1f6d	0.07574353
104	0xbddfd656	-0.10929553
105	0x3ddf97aa	0.109175995
106	0xbdd89aee	-0.105764255
107	0x3de284c9	0.11060483
108	0xbd788f1a	-0.060683347
109	0xbccbd553	-0.024881994
110	0xbd7d02c1	-0.061770204
111	0x3e244898	0.16043317
112	0xbd40c999	-0.04706726
113	0xbd74fd9c	-0.059812173
114	0xbd8a2623	-0.06745555
115	0xbda5de4b	-0.0809904
116	0xbd57ddb5	-0.05270167
117	0x3d923433	0.071388625
118	0xbda9aa8b	-0.082844816
119	0xbda87d88	-0.08227068
120	0xbd40b294	-0.047045305
121	0x3d332136	0.043732844
122	0x3e0cf147	0.13763915
123	0x3d43939e	0.0477482
124	0x3db4b0ef	0.0882281
125	0x3d60d523	0.054890763
126	0xbd6675b7	-0.056264605
127	0x3da56e83	0.08077719

net.2.weight f4 [128, 128]
0	0xbd28e99d	-0.041238416
1	0xbd89d6fe	-0.0673046
2	0xbd088c22	-0.033336766
3	0x3d869bad	0.065726615
4	0xbaa6a7a4	-0.0012714756
5	0x3c1460f0	0.009056315
6	0x3c0064aa	0.0078365
7	0xbd2310a8	-0.039810807
8	0x3d350de0	0.044202685
9	0x3d8bc2f1	0.068242915
10	0x3be36b8c	0.006940311
11	0xbd912c54	-0.07088533
12	0x3db0b896	0.08628957
13	0x3c43dba9	0.0119542265
14	0x3d7a50a2	0.061112054
15	0x3d8ad6b9	0.06779236
16	0x3d71ee06	0.059064887
17	0x3caaf4ac	0.020868622
18	0xbd6454f8	-0.055745095
19	0xbcd3cea0	-0.025855362
20	0x3da1fe30	0.079098105
21	0x3d5d8355	0.054080326
22	0x3d2c21d2	0.04202444
23	0xbd8fd1c5	-0.07022432
24	0xbd258f5a	-0.040419914
25	0x3bd19e11	0.006397017
26	0xbd87cdbe	-0.06631039
27	0xbcc393c1	-0.023874165
28	0xbda65480	-0.08121586
29	0x3d214389	0.039371047
30	0x3d9c519a	0.07632752
31	0x3d209999	0.039208982
32	0x3bba37d0	0.005682923
33	0x3d8b714d	0.0680872
34	0x3cebb9bb	0.028775087
35	0xbda063ae	-0.078315124
36	0x3d01072e	0.031500988
37	0xbdb4c77f	-0.08827113
38	0xbd97e2be	-0.074162945
39	0x3cc5a58e	0.024126794
40	0xbc80f917	-0.015743775
41	0xbd9eff37	-0.07763522
42	0x3d96f423	0.07370784
43	0xbd051cbc	-0.032498106
44	0x3db0cc6b	0.0863274
45	0xbb590e0a	-0.003311994
46	0x3d331b69	0.043727312
47	0x3d2113ce	0.039325528
48	0x3da3ddc3	0.08001282
49	0xbd92cba3	-0.07167747
50	0xbcf5c14d	-0.0299994
51	0x3d7dcccb	0.061962884
52	0xbd0e047b	-0.03467224
53	0xbdb3d768	-0.0878132
54	0x3ce4a9ca	0.027912993
55	0xbcc66b8c	-0.024221204
56	0xbd5a6fe2	-0.053329356
57	0x3c47c75a	0.012193525
58	0x3d7933c8	0.060840398
59	0xbda7057b	-0.08155342
60	0x3d1f4260	0.03888166
61	0x3d130c06	0.03590014
62	0x3dacade5	0.08431605
63	0xbcc2a46c	-0.023760043
64	0xbd246ece	-0.040144734
65	0x3bd95f2e	0.0066336608
66	0x3d25c194	0.040467814
67	0x3d9edfd5	0.07757536
68	0x3d3816a8	0.04494348
69	0xbcaf3ab3	-0.021390295
70	0x3ba7037a	0.00509685
71	0xbcf0fafa	-0.02941655
72	0x3d82cd54	0.063868195
73	0xba353d85	-0.0006913769
74	0xbbb30380	-0.0054630637
75	0x3d0ec889	0.034859214
76	0x3ca7de20	0.02049166
77	0xbc8ce21d	-0.017197663
78	0x3d35bd62	0.044370063
79	0x3cff6783	0.031177288
80	0xbdb149ed	-0.08656678
81	0x3d853e6b	0.06506046
82	0xbd8d538b	-0.069007
83	0x3baf6eea	0.005353798
84	0xbdae2880	-0.085038185
85	0x3c092182	0.008369805
86	0xbc4b766a	-0.012418369
87	0x3d3e78fd	0.046502102
88	0xbc0e1160	-0.008671135
89	0x3b6c899e	0.0036092768
90	0x3cfea865	0.031086156
91	0xbd4a0129	-0.049317513
92	0x3bf463ec	0.0074582007
93	0xbd5e00d8	-0.054200023
94	0xbd2f6a43	-0.04282595
95	0x3d4172a4	0.04722847
96	0xbc152a98	-0.009104393
97	0x3d901007	0.07034307
98	0xbda0dd39	-0.07854695
99	0xbd3523a2	-0.044223435
100	0xbc0d43a6	-0.008622086
101	0xbd85ee45	-0.06539587
102	0x3d1bf1d0	0.038072407
103	0xbd08c8f2	-0.03339476
104	0x3c945074	0.01810477
105	0x3d901087	0.07034402
106	0x3d895e64	0.06707457
107	0xbd60f247	-0.054918554
108	0xbd4ee446	-0.050510667
109	0xbdab0610	-0.08350766
110	0x3cdb3a8e	0.02676132
111	0xbc91a925	-0.01778085
112	0xbd670fb7	-0.05641147
113	0xbd859875	-0.065232195
114	0x3caa113a	0.020760167
115	0xbc8fddf1	-0.017561885
116	0x3b74d3d3	0.0037357702
117	0x3d7ec57f	0.062200066
118	0x3cebd3ce	0.02878752
119	0xbda2635b	-0.07929107
120	0x3d6e673c	0.05820392
121	0x3d13e726	0.036109112
122	0xbd9ae354	-0.07562891
123	0xbc4915c5	-0.012273257
124	0x3d9193bf	0.071082585
125	0xbd1823bd	-0.037143458
126	0x3d0e5369	0.034747515
127	0xbd2ce5cd	-0.042211343
128	0xbcf7c091	-0.03024319
129	0xbc589d20	-0.013221055
130	0x3d8cadf3	0.06869116
131	0xbc0a19a9	-0.008428969
132	0x3da2f971	0.079577334
133	0xbd8a4d18	-0.06752986
134	0xbcafee10	-0.021475822
135	0xbd25461f	-0.040350076
136	0x3d922297	0.07135504
137	0x3cd3984a	0.025829453
138	0x3d9ee4d3	0.077584885
139	0xbcdd5f97	-0.02702312
140	0x3d8057c6	0.062667415
141	0x3d245b3e	0.040126078
142	0xbd364547	-0.04449966
143	0x3be546e6	0.006996977
144	0x3c5befc7	0.013423867
145	0xbdc0aaa2	-0.094075456
146	0xbc761f47	-0.015022106
147	0x3d39b829	0.045341644
148	0x3d24ec1e	0.04026424
149	0xbda0ace4	-0.07845476
150	0xbda94868	-0.082657635
151	0xbbc08f27	-0.00587644
152	0x3d881666	0.06644897
153	0x3d84aafb	0.064779244
154	0x3d338cf8	0.04383561
155	0xbd95c5e0	-0.07313132
156	0x3bf42d09	0.0074516577
157	0xbd9cec69	-0.07662279
158	0xbd59de95	-0.053190786
159	0xbdb5aa05	-0.08870319
160	0xbcebd99d	-0.02879029
161	0xbd1afc18	-0.03783807
162	0xbdb68f32	-0.08914031
163	0xbd15a92e	-0.036538295
164	0xbd7da64c	-0.06192617
165	0xbc266674	-0.010156263
166	0xbd18a45e	-0.037266128
167	0xbdbea000	-0.09307861
168	0x3c427d4a	0.011870692
169	0x3d8714df	0.06595778
170	0x3d6b29a5	0.057412762
171	0x3c27f74c	0.010251831
172	0xbd816386	-0.06317811
173	0x3d80204f	0.062561624
174	0x3d8e925a	0.06961508
175	0xbc77a305	-0.0151145505
176	0xbd8ad03c	-0.06777999
177	0x3b3743d4	0.0027964013
178	0xbd469ddd	-0.048490394
179	0x3d5a8cd4	0.05335696
180	0x3d3dbb79	0.046321366
181	0xbdb45148	-0.08804566
182	0xbda3d433	-0.07999458
183	0xbca7c2ae	-0.020478573
184	0x3cd9997f	0.02656245
185	0x3d0be441	0.034153227
186	0x3d99f0db	0.07516643
187	0xbd10a8e2	-0.03531731
188	0x3d31b302	0.043383606
189	0xbb0180e1	-0.0019760656
190	0x3d11ff7e	0.035644047
191	0xbd8f2752	-0.06989922
192	0x3d4a0e1c	0.049329862
193	0xbdb29f42	-0.08721782
194	0xbd74b03f	-0.059738394
195	0x3d381ce9	0.044949446
196	0x3d4c73c1	0.04991508
197	0x3d56103c	0.052261576
198	0xbd1e5a8d	-0.038660575
199	0xbb011a13	-0.001969938
200	0xbd9493f0	-0.07254779
201	0xbd90428f	-0.07043945
202	0xbc0cdc61	-0.008597464
203	0x3ce1fc6d	0.027586186
204	0x3c77d0e9	0.015125492
205	0xbd0a2f76	-0.03373667
206	0x3ccf80e9	0.025330024
207	0x3d24a142	0.04019285
208	0x3c35d608	0.011098392
209	0x3c1e0f96	0.009647271
210	0x3d90bf80	0.07067776
211	0xbbe4d853	-0.0069837957
212	0x3abad01b	0.0014252694
213	0x3d938e76	0.07204907
214	0xbd719f80	-0.05899
215	0x3cf62928	0.030048922
216	0x3d25157c	0.040303692
217	0x3d3ed491	0.046589438
218	0x3cdfaf7f	0.027305363
219	0xbd9f9abd	-0.07793186
220	0x3da184ae	0.07886635
221	0x3d53a8c6	0.051674627
222	0xbd8f3565	-0.06992606
223	0x3d5d3708	0.05400756
224	0x3d1caa12	0.03824813
225	0x3b299af9	0.0025879724
226	0xbd6d398b	-0.057916205
227	0x3d158690	0.036505282
228	0xbd8d7754	-0.06907526
229	0xbd358489	-0.04431585
230	0xbcb87563	-0.022516912
231	0x3c602d0f	0.013682618
232	0x3d8fc181	0.0701933
233	0xbdc8c451	-0.098030694
234	0xbcfeb6d8	-0.031093046
235	0xbce97a49	-0.028500693
236	0x3cb73a53	0.022366678
237	0xbcbec3ff	-0.023286818
238	0xbd9850d8	-0.07437295
239	0xbd0c0bb1	-0.034190837
240	0xbcbf1e22	-0.023329798
241	0x3c3142c1	0.010819138
242	0x3d1365e0	0.035985827
243	0x3d5273ef	0.051380094
244	0x3d7ba5c8	0.0614374
245	0x3d6aac7a	0.057293393
246	0xbd297d41	-0.041379217
247	0xbda0460d	-0.07825861
248	0x3c0236d3	0.007947641
249	0x38a1fe66	7.724464e-05
250	0xbdc7d0be	-0.09756611
251	0xbce32909	-0.027729528
252	0xbb44895e	-0.0029989104
253	0x3d98756c	0.074442714
254	0x3cd80c80	0.026373148
255	0x3d8d9d48	0.06914765

net.2.bias f4 [128]
0	0xbc61fc29	-0.01379303
1	0x3d93059c	0.07178804
2	0x3d898b54	0.06716028
3	0xbd84c82b	-0.064834915
4	0x3d5cc384	0.053897396
5	0x3d8cb2a5	0.06870011
6	0xbd61c8c3	-0.055123102
7	0x3cfcd44a	0.030862946
8	0xbd9c0eb6	-0.076199934
9	0xbd2697e8	-0.040672213
10	0xbd7d7a48	-0.061884195
11	0x3d583af8	0.052790612
12	0x3daef8cc	0.08543548
13	0x3e0c17d8	0.1368097
14	0xbb79af18	-0.0038098749
15	0xbdc78d47	-0.097437434
16	0xbbb85c69	-0.0056262505
17	0x3d4a9b0f	0.04946428
18	0xbd98116b	-0.07425197
19	0x3d1c8677	0.038214173
20	0x3dff4141	0.12463618
21	0xbd3e4cc6	-0.046459936
22	0xbd1dd961	-0.038537387
23	0x3b8ebd48	0.00435606
24	0xbc997dff	-0.018736837
25	0x3cc93c9e	0.024565037
26	0xbc863c75	-0.01638625
27	0xbd69bdc0	-0.057065725
28	0x3c92ccae	0.017919865
29	0xbda20f1c	-0.07913038
30	0x3dececac	0.11568579
31	0x3da6e008	0.08148199
32	0xbd64b5b9	-0.055837367
33	0xbdb602d8	-0.08887261
34	0xbcbdd5f3	-0.023173308
35	0xbd03d774	-0.032187894
36	0x3d6b8d0a	0.057507552
37	0xbd09015e	-0.03344857
38	0xbbc77a06	-0.0060875444
39	0x3d236d33	0.039899062
40	0x3c4ed6ca	0.012624452
41	0xbda3eec8	-0.08004528
42	0x3d7cb9bf	0.06170058
43	0x3d8d7be3	0.06908395
44	0x3ca32ef1	0.019919844
45	0x3da430e2	0.08017136
46	0xbc1c7a17	-0.009550593
47	0x3d4906f0	0.04907888
48	0x3d82fb10	0.063955426
49	0xbd3cd2fe	-0.046099655
50	0xbda62656	-0.08112781
51	0x3b404938	0.0029340517
52	0x3d5180b2	0.051148124
53	0x3de707ee	0.11280809
54	0x3d17083a	0.03687308
55	0xbb98f0db	-0.004667384
56	0x3d0bac22	0.034099706
57	0xbd8f0f5e	-0.06985353
58	0x3c5bbfd5	0.013412436
59	0xbbd31b7f	-0.006442487
60	0x3ce624ee	0.028093781
61	0xbd68099c	-0.05664979
62	0xbc564e07	-0.013080127
63	0xbd46d1e3	-0.048540007
64	0xbdb131d6	-0.086520836
65	0x3c612ff4	0.013744343
66	0xbb480bab	-0.0030524533
67	0xbd8b29df	-0.06795096
68	0xbd24f5e3	-0.04027356
69	0x3e0a58a4	0.13510376
70	0x3cf6a6e9	0.030108886
71	0xbd8939f4	-0.06700507
72	0xbd13eb53	-0.036113095
73	0x3c693813	0.014234561
74	0xbd550d71	-0.05201477
75	0xbd8ae88a	-0.067826346
76	0x3dd7c212	0.10535063
77	0x3d751fcd	0.05984478
78	0xbda358be	-0.079759106
79	0xbd7127e9	-0.058875952
80	0x3dea2bc5	0.114341296
81	0xbd3cfcad	-0.046139408
82	0xbd741d11	-0.059598032
83	0xbd1fd19f	-0.03901827
84	0xbd0d875a	-0.03455291
85	0xbc372b22	-0.011179717
86	0x3d17d767	0.037070658
87	0xbd983cf7	-0.07433503
88	0x3c01edd6	0.00793024
89	0xbd37037e	-0.044681065
90	0x3d91d782	0.07121183
91	0xbda624e3	-0.08112504
92	0xb943f4a0	-0.00018687779
93	0xbd54fc2d	-0.051998306
94	0xbd46b13d	-0.04850887
95	0x3ceaa960	0.028645217
96	0x3ae030fa	0.001710444
97	0xbd841695	-0.0644962
98	0x3dad5b77	0.08464711
99	0xbd9dd504	-0.07706645
100	0x3d1374b5	0.035999972
101	0xbd906d56	-0.07052104
102	0x3d394c63	0.045238864
103	0x3d002f54	0.031295136
104	0xbd5567aa	-0.052100815
105	0x3dae608e	0.0851451
106	0xbd030d40	-0.031995058
107	0x3d6bff14	0.05761631
108	0xbc9897ea	-0.018627126
109	0xbd2771c3	-0.040879976
110	0x3d1e630e	0.038668685
111	0x3d9b835f	0.075934164
112	0x3db7b700	0.08970451
113	0x3dc31532	0.09525527
114	0xbc973f3f	-0.018462775
115	0xbd2f5ea0	-0.04281485
116	0x3d7af00d	0.061264087
117	0xbdb0f46c	-0.0864037
118	0x3c92e272	0.017930243
119	0x3c2e4bd7	0.010638199
120	0xbbbbc93a	-0.005730775
121	0xbc59de32	-0.013297604
122	0x3dcf5266	0.10123138
123	0x3d03658e	0.032079272
124	0xbd885621	-0.06657053
125	0x3dfb6f80	0.12277126
126	0xbd1be102	-0.03805638
127	0xbc7cec93	-0.015437263

net.4.weight f4 [8, 128]
0	0xbd309ca9	-0.043118153
1	0x3d8eb6e2	0.06968476
2	0x3d943f75	0.07238666
3	0xbccbc180	-0.024872541
4	0x3df985cb	0.12183722
5	0x3d9a8876	0.07545559
6	0xbd723c2e	-0.059139423
7	0xbd3c343f	-0.045948263
8	0x3c84fc6e	0.01623365
9	0xbd20ab95	-0.039226133
10	0xbd0cd081	-0.034378532
11	0xbd6aa8f1	-0.05729002
12	0x3dc5aa76	0.096516535
13	0x3db1238f	0.086493604
14	0x3cf14210	0.029450446
15	0x3d08da19	0.03341112
16	0x3e036a12	0.12833431
17	0x3c6a5b91	0.014304058
18	0xbd8a7b8d	-0.06761847
19	0x3def219a	0.11676331
20	0x3de6a071	0.112610705
21	0xbcaf0d4a	-0.021368641
22	0xbc87af3d	-0.016563052
23	0xbd852f11	-0.06503118
24	0x3e01557c	0.12630266
25	0x3d57892a	0.052621044
26	0x3d59768c	0.05309157
27	0xbd7dd8fb	-0.061974507
28	0xbd8b1389	-0.067908354
29	0xbc846b68	-0.016164497
30	0x3dda7ad5	0.106679596
31	0x3e04ef44	0.12981898
32	0x3c836221	0.016038002
33	0xbd100155	-0.03515752
34	0xbc214bdc	-0.009844746
35	0x3d5da85b	0.054115634
36	0x3ddf0ef6	0.108915254
37	0x3d26e832	0.040748782
38	0x3ba40ca9	0.005006392
39	0x3d0f9306	0.03505232
40	0xbb2637e0	-0.0025362894
41	0x3dad3664	0.0845764
42	0x3d2bf26d	0.041979242
43	0xbc8a28ee	-0.01686522
44	0x3da41c46	0.08013205
45	0x3df40bad	0.119162895
46	0xbd942636	-0.07233851
47	0x3e0e8376	0.13917336
48	0xbd65a152	-0.05606205
49	0x3afff71a	0.0019528598
50	0xbd8cf60d	-0.06882868
51	0x3af63e3b	0.0018786857
52	0xbd134150	-0.03595096
53	0x3dce44ae	0.10071693
54	0x3d18af83	0.037276756
55	0x3daedc42	0.085381046
56	0xbd3d23b6	-0.046176635
57	0xbb2420a3	-0.0025043867
58	0xbc8a1229	-0.016854363
59	0x3d18ef00	0.037337303
60	0x3d5b7572	0.0535788
61	0xbd0e8f84	-0.034804836
62	0x3d1e54fc	0.038655266
63	0x3d87dea0	0.06634259
64	0x3ca94753	0.020663893
65	0xbb128535	-0.002235723
66	0xbc5ff73e	-0.013669787
67	0x3c83762c	0.01604756
68	0x3c8794ef	0.01655051
69	0x3d51b7d7	0.051200714
70	0xbc467961	-0.0121139
71	0xbd3569b1	-0.04429025
72	0xbc682812	-0.01416971
73	0x3d71d522	0.05904115
74	0xbd49ecb8	-0.04929802
75	0xbd8578eb	-0.06517204
76	0xbc02c73b	-0.007982071
77	0x3db39a61	0.0876968
78	0x3d2f4c0d	0.042797137
79	0x3d1afc0f	0.037838038
80	0x3dc45e5d	0.09588311
81	0xbd2328ff	-0.03983402
82	0xbd844520	-0.06458497
83	0x3cdf5b28	0.027265146
84	0xbd4883e8	-0.04895392
85	0x3dc1f5bc	0.09470698
86	0x3d886991	0.0666076
87	0xbda1dee6	-0.07903843
88	0x3cd4b366	0.02596445
89	0xbd3879e5	-0.045038123
90	0x3d47e821	0.04880536
91	0xbccaea1b	-0.024769833
92	0x3c9d5c19	0.019208955
93	0x3d76069c	0.060064897
94	0x3c811f57	0.015762014
95	0xbd0e506c	-0.034744665
96	0xbd8971d0	-0.06711161
97	0x3c16bd83	0.009200457
98	0xbb0ece92	-0.0021790606
99	0x3da253a3	0.07926109
100	0x3d405e2d	0.046964813
101	0xbce5b12c	-0.028038584
102	0xbcb95ca4	-0.022627182
103	0xbd151f91	-0.036407057
104	0x3ce91b86	0.028455507
105	0x3d673f4f	0.05645686
106	0xbd304711	-0.043036524
107	0x3c84d7e5	0.016216228
108	0xbd189ef2	-0.037260957
109	0x3cf22a9d	0.029561335
110	0xbd8dd7ef	-0.06925952
111	0x3c39bfa6	0.011337196
112	0x3d94df91	0.072692044
113	0x3cda20e9	0.02662702
114	0x3d1934dc	0.037403926
115	0xbd819bd7	-0.06328552
116	0x3deb6195	0.11493222
117	0xbd94eee7	-0.072721295
118	0xbd253958	-0.04033789
119	0xbc668e8d	-0.014072073
120	0xbd955ee6	-0.07293491
121	0x3d437ff5	0.04772945
122	0x3e03fe9d	0.12890096
123	0xbcec14fb	-0.028818598
124	0x3d258d4e	0.04041796
125	0x3df80863	0.12110975
126	0xbd5b2c0f	-0.053508814
127	0x3cfb73f9	0.030694949
128	0xb9bff3ae	-0.00036611914
129	0xbd804573	-0.062632464
130	0x3dc21e83	0.09478476
131	0x3da4d4d1	0.08048404
132	0x3b02847a	0.0019915388
133	0x3ac15913	0.0014751278
134	0x3d59455f	0.053044673
135	0x3d878106	0.06616406
136	0xbda9c8ee	-0.082902774
137	0x3cba0f82	0.022712473
138	0xbce15d5d	-0.02751034
139	0x3d362c1c	0.04447566
140	0x3d0b896f	0.034066614
141	0x3db733c2	0.08945419
142	0xbd796aa6	-0.060892724
143	0x3d5fb5bc	0.054616675
144	0xbd315bb0	-0.04330033
145	0xbd8e5c01	-0.06951142
146	0x3d62e56b	0.05539457
147	0x3b420ec3	0.002961085
148	0xbd0673af	-0.03282517
149	0xbd912a74	-0.070881754
150	0xbdc1b362	-0.09458043
151	0xbd5c0a8e	-0.053721003
152	0x3dcf9381	0.10135556
153	0xbd13e85d	-0.03611027
154	0x3d2fd8d1	0.04293138
155	0xbd73928b	-0.059465926
156	0x3baf5ae1	0.00535141
157	0xbd72372d	-0.05913465
158	0x3bb9699a	0.0056583406
159	0x3d5103e4	0.0510291
160	0xbd7a745d	-0.06114613
161	0x3d089cc7	0.03335264
162	0x3d8c972c	0.06864771
163	0x3c355fae	0.011070175
164	0x3e065a3b	0.13120358
165	0x3d0cd6ec	0.034384653
166	0x3d1a5bad	0.037685085
167	0xbc48b062	-0.012249084
168	0xbd99d4dd	-0.075113036
169	0xbd353a56	-0.044245087
170	0x3db132e4	0.08652285
171	0xbd3ca0eb	-0.0460519
172	0x3d50f764	0.05101718
173	0x3d22b6f9	0.039725278
174	0x3dbdbd6c	0.09264645
175	0x3e05b9b0	0.13059115
176	0x3d97ebbd	0.074180104
177	0x3d47cc11	0.048778597
178	0x3d1b4247	0.037905004
179	0x3ceb4e7c	0.028723948
180	0xbd938a2e	-0.0720409
181	0x3bfb5684	0.0076702256
182	0x3da280ed	0.07934747
183	0x3d2eede6	0.042707346
184	0x3dba9f2d	0.091123916
185	0xbbdb727c	-0.006696997
186	0x3b8c535f	0.0042823995
187	0xbd34651b	-0.044041734
188	0xbcbf1fbf	-0.023330567
189	0x3d91a35d	0.07111237
190	0x3c990655	0.018679777
191	0xbda2d771	-0.079512484
192	0x3bf21fd5	0.0073890486
193	0x3a59e5b3	0.0008312121
194	0x3d59d501	0.053181652
195	0x3db136e5	0.086530484
196	0x3b89715e	0.0041944226
197	0x3dc9214a	0.098208025
198	0xbd8305a0	-0.06397557
199	0x3d9ccb08	0.07655913
200	0xbccec0b6	-0.025238376
201	0xbd9d0b98	-0.07668227
202	0xbcc01e70	-0.023452014
203	0xbbd58930	-0.006516598
204	0xbbe0cd1d	-0.006860389
205	0x3c042db2	0.008067535
206	0xbc3063c3	-0.010765973
207	0x3cf83229	0.030297356
208	0x3d3a66a1	0.04550803
209	0x3d279e3e	0.040922396
210	0xbd72ad28	-0.059247166
211	0x3d753db0	0.059873283
212	0x3d4ccf8c	0.05000262
213	0xbaf4f6a5	-0.0018689228
214	0x3da50c04	0.080589324
215	0xbca59c93	-0.020216262
216	0xbc254bc6	-0.010088867
217	0x3a731439	0.0009272728
218	0x3c51d85d	0.012807933
219	0xbca60462	-0.020265762
220	0x3d227b09	0.039668117
221	0x38ec04dc	0.00011254262
222	0x3d294d97	0.04133376
223	0xbb29d639	-0.002591504
224	0xbd44e3aa	-0.04806868
225	0x3cb6b8a9	0.02230485
226	0xbcf44a27	-0.029820515
227	0x3d6ac063	0.05731238
228	0xbd98e040	-0.07464647
229	0xbb38e732	-0.0028213975
230	0x3cbb771b	0.022883942
231	0xbd9f2ad2	-0.07771839
232	0x3c41638d	0.01180352
233	0x3c433294	0.011913914
234	0x3da2297c	0.07918069
235	0xbd15370d	-0.036429454
236	0xbd8b9ebb	-0.06817385
237	0xbbe4e2d8	-0.0069850497
238	0x3cc6d465	0.0242712
239	0x3da193a4	0.07889488
240	0x3dc8a16d	0.097964145
241	0x3cc014d4	0.023447432
242	0xbd0e3ee5	-0.03472795
243	0xbd66bdab	-0.056333225
244	0xbca32ab1	-0.019917818
245	0xbc63da58	-0.013907038
246	0xbd3d3e86	-0.046202205
247	0xbd5ff8d5	-0.054680664
248	0xbbcb79fa	-0.006209609
249	0xbda3cce2	-0.07998063
250	0xbbd9f478	-0.0066514574
251	0xbd0e66a3	-0.03476585
252	0x3cec85e8	0.028872445
253	0x3e071a12	0.13193539
254	0x3d0e39f7	0.03472325
255	0xbd9e63b5	-0.07733861

net.4.bias f4 [8]
0	0x3e02d974	0.12778264
1	0xbca187c0	-0.019718051
2	0x3d966d08	0.07345015
3	0x3d88c4ef	0.06678187
4	0xbcba86ab	-0.022769293
5	0x3cee76a2	0.029109303
6	0xbbb8272c	-0.005619904
7	0x3cf37576	0.029719096
